1500.pt (torch, 742974 bytes, 4 tensors)

embedding.weight f4 [5396, 32]
000000 df ba 22 c0 8b a7 26 c0 64 ab 61 40 39 56 a5 3f
       -2.5426557 -2.603976 3.5260859 1.2916938
000010 fc 57 60 c0 56 b0 16 c0 bb f1 19 40 6d 3c ba c0
       -3.5053701 -2.3545127 2.405379 -5.819876
000020 42 23 30 40 66 f9 d0 3f f1 f5 59 c0 3f c7 a0 be
       2.752152 1.632611 -3.405636 -0.31402013
000030 69 b3 6b 3f 8f 29 ba bf 95 66 92 3e 9d 1b cd bf
       0.92070633 -1.4543933 0.2859389 -1.6024052
000040 d1 b3 85 40 db c0 33 bf bd 53 8e c0 73 80 34 c0
       4.1782002 -0.7021615 -4.447722 -2.82034
000050 31 11 16 c0 79 83 be bf 79 44 00 40 e0 1a 0b 40
       -2.3447993 -1.4883872 2.0041792 2.1735153
000060 3b 8a 2b c0 ed 5b 36 40 29 e0 32 3f 79 ed c4 3f
       -2.680312 2.8493607 0.6987329 1.5384971
000070 a6 fd 50 40 c9 21 8a c0 a2 d4 bc bf c6 16 32 c0
       3.2654815 -4.316624 -1.475239 -2.78264
000080 c2 90 46 be 8a cb 97 bf e5 6a c0 3f 9e 4b de 3f
       -0.19391158 -1.185899 1.5032622 1.7366827
000090 29 5f ab c0 59 c8 09 c0 c5 99 18 bf 96 07 50 c0
       -5.355366 -2.1528533 -0.59609634 -3.250463
0000a0 7c 26 34 40 ab 16 6c 40 13 da 2e 40 02 23 c3 bf
       2.814849 3.6888835 2.7320602 -1.5245059
0000b0 51 bf c5 bd f2 76 30 c0 a2 90 85 bf 76 90 2d be
       -0.09655631 -2.7572598 -1.0434763 -0.16949639
0000c0 ec e5 39 40 29 68 90 3e 90 49 8b 3f 37 d7 e3 be
       2.9046583 0.28204468 1.0881824 -0.44500133
0000d0 81 de c2 c0 f7 78 5f c0 e9 3f 52 40 1d 5e 5e 40
       -6.089661 -3.491758 3.2851508 3.4744942
0000e0 d3 e2 b7 3f 8f c8 1e 40 0b a2 1f be 04 35 2c 40
       1.4366096 2.4809911 -0.15589158 2.6907358
0000f0 58 18 c8 40 b5 d9 f0 bf f3 cd 95 40 53 4d 58 c0
       6.2529716 -1.8816439 4.6813903 -3.3797195
000100 57 d4 38 3e 6b 27 22 c0 22 06 97 be 5d 33 1a 40
       0.18049751 -2.533656 -0.29496866 2.409385
000110 e4 a1 d6 c0 de 5e 5b c0 8c 41 b2 3f a1 f0 75 c0
       -6.707262 -3.4276652 1.3926253 -3.8428118
000120 d9 10 68 40 66 f6 5d 40 42 20 4a bd 3d 05 63 bf
       3.6260283 3.468164 -0.04934717 -0.8867987
000130 d3 d1 72 bd b7 a4 c7 bf 3c a8 c6 bf 3e e9 18 be
       -0.059282135 -1.5597142 -1.5520091 -0.14932725
000140 21 71 79 40 e3 93 0a 40 56 7c 83 bf 0b 9f f5 be
       3.8975298 2.1652763 -1.0272319 -0.47972903
000150 3c f7 c1 c0 7a dd b7 c0 a9 f9 51 40 b0 31 69 40
       -6.06143 -5.7457857 3.280863 3.6436577
000160 31 52 ff 3e 66 e2 42 40 1c 91 0e 40 12 2b 0d 40
       0.49867395 3.0450683 2.2276068 2.2057538
000170 b1 6f 6e 40 bb 2c 31 c0 f5 ed 4b 40 bf 19 6e c0
       3.725567 -2.7683551 3.1863987 -3.7203214
000180 57 17 8f 40 34 00 1d c0 60 bf 81 40 87 0e 2c bf
       4.471599 -2.4531374 4.054611 -0.67209667
000190 0d 67 7a be f3 5b df c0 57 0a a7 bf 53 39 10 c0
       -0.24453373 -6.9799743 -1.305003 -2.2534988
0001a0 f0 04 a0 bf 5a da 4c 3f 30 c4 d7 3f b6 35 ff be
       -1.2501507 0.8002068 1.6856747 -0.49845666
0001b0 07 07 a5 40 9d 66 5b c0 e6 ae 9c 40 e5 10 aa 40
       5.157108 -3.428138 4.89635 5.3145623
0001c0 2e 28 8b 3f 0c 90 dd bf 85 ec 8b c0 ac 0e 34 bf
       1.0871637 -1.7309585 -4.372622 -0.7033489
0001d0 ef fd a9 3f f4 3b 17 3f 97 49 a8 40 7b d1 ff 3f
       1.3280619 0.59075856 5.258983 1.9985803
0001e0 8c eb 2f c0 27 d9 79 c0 bf 99 39 bf ad 32 c6 3e
       -2.7487516 -3.903879 -0.7250022 0.38710538
0001f0 8e a2 51 40 e0 90 05 c0 5f 07 b4 c0 f8 6f 2e c0
       3.2755466 -2.0869675 -5.6259 -2.725584
000200 1b ab 6b 40 ca 62 47 c0 41 7a e0 40 e7 be 89 bf
       3.6823184 -3.1154046 7.0149236 -1.0761384
000210 db 28 39 3e ee 4a 41 bf 9d 03 15 c0 23 7d 8a c0
       0.18081991 -0.7550496 -2.3283455 -4.3277755
000220 70 a8 3e 40 5c b1 aa bf 41 aa f1 bd 5c a0 04 3f
       2.9790306 -1.3335376 -0.118000515 0.5180719
000230 5b 6b 89 40 39 76 6f 40 f2 85 8b 3f d8 d1 5b 3f
       4.294355 3.7415907 1.0900252 0.8586707
000240 8d ab 6f 40 bb 81 32 bf c0 5f b8 bf 7f 2c 78 bf
       3.7448456 -0.69729203 -1.440422 -0.96942896
000250 79 07 08 41 bf aa aa 40 1a 83 cf 40 16 f1 56 c0
       8.501824 5.333343 6.4847536 -3.3584647
000260 4b 1d 83 c0 21 42 cc be ee b0 50 c0 b3 9a 76 40
       -4.097326 -0.39894202 -3.260799 3.853192
000270 0e d0 ae 3f ab f8 a7 c0 77 62 67 c0 f4 a2 8a 3f
       1.3657243 -5.249105 -3.6153848 1.0830979
000280 22 53 71 be 74 eb b8 c0 0c 1f 8b 40 55 a3 6f bf
       -0.23566869 -5.778742 4.34754 -0.936086
000290 d7 26 ce 40 44 24 31 c0 10 18 df 40 04 9c f8 c0
       6.442241 -2.7678385 6.9716873 -7.769045
0002a0 cc 7d 11 40 c2 fa 2b 3d c2 f4 75 40 7d 1a 69 c0
       2.273303 0.04198719 3.8430638 -3.6422417
0002b0 bf 66 f2 39 91 bc 3e 40 50 0a ba c0 32 09 07 41
       0.0004623439 2.9802592 -5.813759 8.439745
0002c0 1c c2 23 c0 8d f9 82 40 6a b1 4e c0 ad 6e 82 40
       -2.5587225 4.0929627 -3.2295785 4.07601
0002d0 e4 b3 bc c0 d2 62 5e 40 dc f1 f0 bf 32 ad 31 40
       -5.8969593 3.4747815 -1.882381 2.776196
0002e0 95 cb 4a 40 6b eb 13 40 3e a4 03 bf 62 3e 74 c0
       3.1686757 2.3112438 -0.5142249 -3.8163075
0002f0 e9 27 13 c0 da 29 21 40 59 9e 10 40 77 96 df 3e
       -2.299311 2.5181794 2.2596648 0.43669483
000300 d3 25 00 c0 f4 04 d0 c0 ec 96 66 40 4d 26 20 40
       -2.0023086 -6.5006046 3.6029615 2.5023377
000310 77 68 0b 41 4f f5 9d bf a8 36 3b c0 91 d4 1d c1
       8.713004 -1.2340487 -2.925211 -9.864396
000320 4a 22 b3 c0 61 b7 f4 3f 91 c9 00 c1 4e 08 bd 3f
       -5.5979357 1.9118463 -8.049211 1.4768159
000330 ac df 25 3f 3e c9 3d 40 f1 d1 9e 3f 99 ae a6 3f
       0.6479442 2.9654078 1.2407819 1.3022033
000340 fd 0a ef bf e4 c0 4b 40 63 0a c6 40 16 f1 8f c0
       -1.8675228 3.183648 6.188768 -4.4981794
000350 9a ae 63 bf d9 1a b3 40 5e 3d c2 40 0d da 25 bd
       -0.88938296 5.5970273 6.069991 -0.040491153
000360 09 df 80 3f a9 8a 88 3f f1 d8 de 3d 1d 21 34 c0
       1.0068065 1.0667316 0.10881222 -2.814521
000370 5d 7c 57 bf 7c 2d cf 3e 89 f2 29 40 67 35 02 41
       -0.8417414 0.4046439 2.6554282 8.138038
000380 aa 80 c8 3e 43 e3 aa c0 c4 63 06 41 73 37 96 40
       0.39160663 -5.340242 8.399357 4.6942687
000390 1c 4e 39 bf ae 64 5f c0 98 ae ed 3f 30 bc 11 c1
       -0.7238481 -3.49052 1.8568907 -9.108444
0003a0 13 5c af c0 59 13 79 40 a7 d3 38 bf f8 af 79 3f
       -5.4799895 3.891806 -0.72197956 0.9753413
0003b0 64 39 a5 3f 0f aa df 3e e2 b7 a5 3e 14 b9 1b 40
       1.2908139 0.43684432 0.32366854 2.4331713
0003c0 a0 2f b6 3f e5 d2 36 40 d2 8f 80 c0 c3 d9 87 c0
       1.4233284 2.856622 -4.017556 -4.2453322
0003d0 14 4e 04 40 08 9b f7 40 92 3a d2 be 78 9c 1d c0
       2.0672655 7.7376747 -0.4106031 -2.462675
0003e0 a9 f9 48 3f 8e b8 ff 3f fb 70 7d c0 15 07 bc bf
       0.7850595 1.9978197 -3.9600208 -1.4689661
0003f0 aa f9 c4 c0 d7 51 91 c0 78 2a 31 40 b1 0f ff 40
       -6.1554766 -4.54124 2.768217 7.9706655

CNN.0.weight f4 [128, 32, 3]
000000 5d 14 1b bc a8 00 9c 3d 45 a3 50 bd 19 4d 69 bc
       -0.009465304 0.07617313 -0.050936956 -0.014239573
000010 23 1b 0b 3d 15 9c d8 bb 24 cb dc bc da 2e 3b 3d
       0.033961426 -0.0066104033 -0.026952334 0.045698978
000020 04 b2 84 bb f2 17 48 3d 27 6b 14 3b f8 d2 03 bd
       -0.0040495414 0.04885096 0.0022646876 -0.032183617
000030 d2 e7 ce bc fd 42 80 3d 4e 66 1b 3d d9 ef 5b 3d
       -0.025257025 0.06262777 0.037939362 0.053695533
000040 df 91 23 3d be 03 47 3c 49 33 60 3a 24 29 b0 3c
       0.039934035 0.012146888 0.0008552564 0.021503992
000050 5b 71 d6 bc d9 1a 2d bc 81 09 fc bb 10 48 bd 3a
       -0.026177099 -0.010565483 -0.0076915626 0.0014441032
000060 28 a7 fe bb 7c e3 a4 bc 6b a3 42 3d bf 43 26 bc
       -0.0077713914 -0.020128004 0.04751913 -0.010147988
000070 8c 7f c4 3c ed ef ac bd 8d 09 d8 bc 87 f1 67 3d
       0.0239866 -0.084442 -0.026371742 0.056626823
000080 8c c1 2b 3d d7 36 95 3d fc c6 a5 bb f3 46 22 3d
       0.041932628 0.072858505 -0.005059121 0.039618444
000090 15 d0 8f 3d 96 a7 e5 3c 11 6d d8 bb 93 68 30 3d
       0.070221104 0.028034013 -0.0066047986 0.04306848
0000a0 86 1e 1d 3c cf 1a d7 3d 8f 9e 60 3b 9a 92 58 bd
       0.009589797 0.1050316 0.0034274196 -0.052874185
0000b0 31 f0 06 bd b0 34 82 bd f5 89 e4 bd 65 b5 06 be
       -0.032943908 -0.063577056 -0.11159126 -0.13155134
0000c0 d2 7b 4a bd 28 ff 7e bd 9f a1 89 3b 8e ee 1f 3d
       -0.04943449 -0.062255055 0.004200175 0.039045863
0000d0 29 ce 64 bd 90 41 07 3e 2c bb 00 3d 2e 32 68 bc
       -0.055860672 0.13208604 0.0314285 -0.01417212
0000e0 8c 03 3b 3c 1f bf 95 bb 30 e3 c0 bc 43 13 cd 3c
       0.01141442 -0.0045699026 -0.023545831 0.025033599
0000f0 7d d3 68 3d e9 ed ce 3c f5 e0 e8 3c 2c 15 f3 3c
       0.056842316 0.025259929 0.02842758 0.029673181
000100 04 44 ab 3c a7 7a 51 bd 16 15 0f bd 83 16 d3 bd
       0.020906456 -0.05114236 -0.03493222 -0.10307028
000110 37 68 e6 3b 54 54 b5 3d 81 68 a6 3d dd 0e 5d 3d
       0.0070314663 0.08853975 0.08125401 0.053969253
000120 f7 7e ad bc 8f 13 86 3b e7 44 b3 3c 03 63 3e bd
       -0.021178706 0.004091687 0.021883441 -0.046481144
000130 5a d7 66 bd ea 58 55 bc 72 36 d9 bd 3c 3a 7a 3d
       -0.05635772 -0.013021687 -0.10606088 0.061090693
000140 33 b1 55 3d ef 5e 9b ba 97 e0 8d bd db 36 67 bc
       0.052170943 -0.0011853854 -0.06927603 -0.0141122
000150 18 12 d2 3c 9b af f4 ba aa 0e db 3d dd 1a 03 3d
       0.025643393 -0.0018668057 0.10696156 0.03200804
000160 c6 21 fa bd e4 b5 14 bd 55 55 0c bc 7a 14 dc bc
       -0.12213473 -0.036306277 -0.008565267 -0.026865233
000170 72 2a 91 bc d8 43 3e 3d 96 3d ec 3c c5 83 d4 3c
       -0.017720435 0.04645142 0.02883796 0.025941739
000180 05 d8 28 bd 16 d4 5f bd 3b 19 c3 bc ee d4 3c bc
       -0.041221637 -0.05464562 -0.023815742 -0.011525376
000190 a6 03 a3 bc 45 6f 91 3d 4c 78 8b bc ad ee c7 bc
       -0.0198992 0.07101301 -0.017025135 -0.024405802
0001a0 55 50 70 bd 52 7f b4 3d 86 56 1e 3c f0 e1 9b 3d
       -0.05867036 0.08813347 0.0096641835 0.076114535
0001b0 5f 62 30 bd e2 22 a5 3c 87 f7 11 bc 5e c6 ab 3d
       -0.043062564 0.020158235 -0.008909113 0.08387445
0001c0 97 1e 09 3d 8a 30 6b 3c d7 55 35 bd fd b1 54 3d
       0.03347644 0.014354834 -0.044271316 0.051927555
0001d0 a1 28 f7 bc e2 3a 8b 3c d3 a3 4f bd a8 69 5d bc
       -0.03017074 0.016995851 -0.050693344 -0.01351396
0001e0 4c 29 98 3c 5d d0 0f bd 57 49 3b 3c fd f6 aa 3d
       0.01857438 -0.03511082 0.01143106 0.083478905
0001f0 c9 db 75 bd e9 84 6d bc 44 82 0a 3d 6e bf 51 bd
       -0.060024057 -0.01449702 0.033815637 -0.051207952
000200 53 d7 98 3c 87 ab 35 3d 7b eb 92 bd 39 f4 a3 3d
       0.018657362 0.044353034 -0.071738206 0.08005566
000210 b7 ac 59 bd 7f 45 86 3d d9 5a 8f 3c 2c 28 b5 bc
       -0.05314323 0.06556224 0.017499374 -0.022113882
000220 00 76 3a 3d ec 96 01 3d f7 88 0c bd 7d 5c 31 3a
       0.04552269 0.03163807 -0.034310307 0.0006765796
000230 2e 73 5c bd e3 07 d0 3c 51 7c b8 bd fa 64 95 bc
       -0.05382078 0.025394386 -0.090080865 -0.018236626
000240 78 b4 b0 bc fe fe 85 bd a5 55 13 3c f5 99 33 3d
       -0.02157043 -0.065427765 0.008992587 0.043847997
000250 e6 da 8c bc 54 49 a8 3d f4 9b 31 3c 8c 15 9c bc
       -0.017194223 0.08217111 0.010840405 -0.019053243
000260 63 ea cd bc 67 9f 72 bc 6b 50 14 3d c0 81 73 bc
       -0.025136178 -0.014808512 0.036209505 -0.014862478
000270 88 ed b0 3d 88 ed 15 3c 1f 64 00 3d 9b 70 db bc
       0.086390555 0.00915087 0.031345483 -0.026787093
000280 64 8c 93 3b 84 5f 96 ba 80 fb 91 3c a9 36 6b bd
       0.00450282 -0.0011472558 0.01782012 -0.057425175
000290 50 c7 68 bd 88 f5 92 3d c1 64 89 bd 3a 5d 69 3c
       -0.056830704 0.071757376 -0.067086704 0.014243418
0002a0 82 6f bb 3d 9d 64 05 3c 6f d9 9b 3b 9a 84 a1 bc
       0.09152128 0.008141664 0.0047561447 -0.01971655
0002b0 0c 40 89 bd e8 46 bb 3b 3b 92 30 3d be 10 94 bc
       -0.06701669 0.00571524 0.043108206 -0.01807439
0002c0 44 92 7c 3d 27 ed 0d 3c b1 a0 71 bd b8 4b cb 3c
       0.061662927 0.008662499 -0.058991138 0.024816379
0002d0 2c 90 7e 3d f5 db 59 bc 8f 07 c8 bc 8e 4f 0e bd
       0.06214921 -0.013297071 -0.024417667 -0.034743838
0002e0 f4 ee 86 bd 44 84 0b bc c8 49 b3 bd d8 e2 26 bc
       -0.065885454 -0.008515421 -0.08754307 -0.01018592
0002f0 c2 e1 53 3c 98 b0 07 bd ad e6 10 bc b8 dc f3 3b
       0.012932243 -0.033127397 -0.00884406 0.007442083
000300 2d 6f 06 bd f9 5c 80 3c cd 19 0f 3d 58 84 2d bc
       -0.03282087 0.015669333 0.034936715 -0.010590635
000310 8b 51 42 3d 75 02 08 bd 23 72 56 3d c7 e3 54 bd
       0.047441047 -0.03320547 0.052354943 -0.051975038
000320 84 81 08 bd f2 1d 1c bc 8f f1 87 3d f3 19 a3 3d
       -0.03332664 -0.009528624 0.066378705 0.07963934
000330 cd b0 ac 3c 39 97 70 3d 64 50 98 3c 9d ce 73 bd
       0.021080399 0.058737967 0.01859302 -0.059523214
000340 06 3c b8 3d 24 4d 04 3d e9 58 b2 bc 00 bd 9e 3c
       0.089958236 0.03230013 -0.021770911 0.019377232
000350 07 a0 2e 3a 9a 0f 46 bc 84 16 1f 3d 93 69 f1 bb
       0.0006661419 -0.012088681 0.038839832 -0.0073673218
000360 58 d8 84 bc e1 09 b2 3c 01 f1 3c bd 7c 5f fa bc
       -0.016216442 0.021733226 -0.046128277 -0.030563109
000370 19 f1 8d 3c 0b 00 98 3d 7b 04 8a 3d cd e7 71 3d
       0.017326878 0.07421883 0.06739136 0.059058953
000380 e1 0c 81 3d 42 c8 00 3c 1d ad 16 3d d9 35 13 3c
       0.063012846 0.007860245 0.036786187 0.008985006
000390 11 12 a5 bb 8b 59 e6 bb f7 86 71 bc 4d 0b 83 3d
       -0.005037554 -0.0070297173 -0.014741651 0.0639864
0003a0 f3 61 e6 bb 5e ac 85 3d b7 68 13 3c 54 a0 c7 bb
       -0.0070307194 0.06527017 0.008997134 -0.0060921106
0003b0 eb 6a 62 bc f4 7d 57 3a 32 f8 af bd 5e 99 7b bd
       -0.013819437 0.00082203676 -0.085922614 -0.06142556
0003c0 0b 3c 09 3d 81 e3 62 3c b7 b6 10 bd 1c f4 1c 3d
       0.033504527 0.0138481865 -0.0353305 0.03831874
0003d0 84 bf 19 3d c1 e6 c8 3d f8 0c 65 bc 4c d0 60 bc
       0.03753616 0.09809638 -0.013980143 -0.013721537
0003e0 0e 9f 03 3d 7e 73 23 3c c6 11 30 bd 8c 80 9d 3c
       0.03213411 0.009976266 -0.0429857 0.019226335
0003f0 d8 56 39 3c 94 73 11 3c 82 ae 14 bd 0d 5f ba 3b
       0.011312209 0.008877654 -0.036299236 0.0056876005

CNN.0.bias f4 [128]
000000 4b cc 6f bf c7 1f b7 bf fc 4c b2 bf 21 aa 9e bf
       -0.936711 -1.4306573 -1.3929744 -1.2395669
000010 86 65 ae bf 1d bb b6 bf 25 55 b2 bf a1 d4 a4 bf
       -1.3624732 -1.4275852 -1.3932234 -1.2877389
000020 e4 be ca bf f8 f5 b9 bf 3a cf ad bf 6f 6c bc bf
       -1.5839505 -1.4528189 -1.3578866 -1.4720591
000030 ae 05 d5 bf a6 61 b2 bf 91 0a e3 bf 1e 6b c6 bf
       -1.6642358 -1.393605 -1.77376 -1.550144
000040 47 ca ab bf 1d 32 da bf 43 8d 9c bf f0 bb be bf
       -1.3421105 -1.7046543 -1.223061 -1.4901104
000050 81 76 a5 bf 5f 32 c9 bf d0 f4 a6 bf 01 0d bf bf
       -1.292679 -1.5718497 -1.3043461 -1.4925843
000060 fc 6a 94 bf 8c 49 c8 bf 90 4e c0 bf 8a 2a a9 bf
       -1.1595149 -1.5647445 -1.5023975 -1.3216107
000070 ae 13 8c bf 37 1b c2 bf 97 0d 89 bf 5d fa ad bf
       -1.0943506 -1.5164555 -1.0707272 -1.359203
000080 b0 b2 c8 bf 73 e2 be bf f1 58 c5 bf ec 60 d5 bf
       -1.5679531 -1.4912857 -1.5417768 -1.6670203
000090 e3 5d ad bf d9 73 c9 bf 63 b2 9a bf 89 a3 ad bf
       -1.3544277 -1.5738479 -1.2085689 -1.3565532
0000a0 bb 42 b6 bf dc b8 ca bf fc 30 99 bf b9 26 94 bf
       -1.4239115 -1.5837665 -1.1968074 -1.1574317
0000b0 ed 8d b9 bf 72 6e 4e bf 4b b3 71 bf 4b 16 ae bf
       -1.4496437 -0.80637276 -0.94414204 -1.3600553
0000c0 60 18 97 bf c6 e5 c3 bf 6c 7a c3 bf 9d 1b a4 bf
       -1.1804314 -1.5304496 -1.5271735 -1.2820927
0000d0 48 8b 7a bf 61 a3 b5 bf d3 8a c8 bf 06 e5 c1 bf
       -0.97868776 -1.4190484 -1.5667366 -1.5148017
0000e0 29 c0 98 bf 97 1e b1 bf 70 6e be bf 51 33 b9 bf
       -1.1933643 -1.383746 -1.4877453 -1.4468786
0000f0 03 ea ba bf 20 0c c7 bf 0a e5 b3 bf 19 66 a6 bf
       -1.4602665 -1.5550575 -1.4054272 -1.2999908
000100 f1 c9 d5 bf b2 0d 91 bf cf 14 a0 bf 1a 3e bb bf
       -1.6702253 -1.1332304 -1.250635 -1.4628327
000110 f5 9f ae bf 0e 5e af bf 28 70 9b bf de c9 b1 bf
       -1.3642565 -1.3700578 -1.2143602 -1.388973
000120 d9 30 be bf b4 6e b4 bf 4b 36 bc bf af 79 bf bf
       -1.4858657 -1.4096284 -1.4704069 -1.495901
000130 3b 9a cc bf be 4e a7 bf 1a 05 89 bf d2 59 de bf
       -1.5984567 -1.3070905 -1.0704682 -1.7371161
000140 34 8c ba bf 33 50 a9 bf 98 ff c2 bf c3 70 96 bf
       -1.4574037 -1.32276 -1.5234251 -1.1753162
000150 a1 e9 bd bf 7d ab c5 bf 17 e1 a0 bf 6a 7c bb bf
       -1.4836923 -1.5442959 -1.2568692 -1.4647343
000160 0f 3d d1 bf 97 b2 c4 bf b9 e5 c3 bf a8 07 b6 bf
       -1.6346759 -1.5367001 -1.5304481 -1.4221087
000170 4f 77 c9 bf fd 87 d6 bf e2 73 c0 bf 49 fa ae bf
       -1.5739535 -1.676025 -1.5035365 -1.3670131
000180 e7 6b c8 bf 96 1d c7 bf 61 45 b6 bf 49 61 a6 bf
       -1.5657929 -1.5555904 -1.4239923 -1.2998439
000190 2e b2 aa bf a1 a8 be bf 6d 6d ae bf 20 fa 92 bf
       -1.3335626 -1.4895211 -1.3627144 -1.1482582
0001a0 fb 38 9b bf 50 09 a9 bf dd 50 aa bf 53 30 93 bf
       -1.2126764 -1.3205967 -1.3305928 -1.1499122
0001b0 01 06 a7 bf e9 6b cd bf 92 44 d4 bf e0 3a bd bf
       -1.3048707 -1.6048557 -1.6583426 -1.4783592
0001c0 ea f9 d7 bf 90 c2 c1 bf 0f d6 9f bf 70 f8 ab bf
       -1.6873143 -1.5137501 -1.24872 -1.3435192
0001d0 02 d9 c1 bf e9 7c c6 bf 31 2a cd bf 60 4c a2 bf
       -1.514435 -1.550687 -1.6028501 -1.2679558
0001e0 1b 6b c3 bf 6f 19 bf bf 6f 6e a9 bf 92 cc a3 bf
       -1.5267061 -1.4929637 -1.3236827 -1.2796805
0001f0 3a 59 cb bf 77 bd 91 bf 41 0e c9 bf dd 1e ba bf
       -1.5886605 -1.1385945 -1.5707475 -1.4540669

fc.weight f4 [1, 128]
000000 0c 16 b8 3c 80 87 7d 3d ec 20 bb bd 99 cd 91 3d
       0.02247145 0.0618968 -0.09137139 0.07119293
000010 9d e0 fb 3d 05 84 b0 3d ba b7 0a be d1 85 b5 bd
       0.12298701 0.08618931 -0.13546649 -0.08863414
000020 87 cb d2 be b9 3b 3a 3e c5 e0 7d bd 2e b9 2e 3e
       -0.41170904 0.18186845 -0.061981935 0.17062828
000030 05 2a 1d be 53 07 62 be 52 99 43 be 7b 01 94 be
       -0.1534806 -0.22073106 -0.19101456 -0.2890738
000040 da bd 17 3e 7d 4b 5c be cd bc ab 3d f5 55 1c be
       0.14818516 -0.21513171 0.0838562 -0.15267165
000050 f4 5f ee 3d 58 77 46 be 9e d2 d6 3d 9f e9 21 be
       0.11639395 -0.19381464 0.10489391 -0.15811776
000060 e6 3a 12 3d 90 d9 02 3e b6 0a 29 be b1 26 70 bd
       0.0357007 0.12778306 -0.16507992 -0.05863065
000070 9f 8d 01 3d ad 97 61 be e0 3f 6d 3d e8 0c 10 3e
       0.0316292 -0.22030516 0.057922244 0.14067423
000080 dd 89 b9 be 99 e1 ae be 20 11 bc 3d 85 91 2f bf
       -0.36237994 -0.34156492 0.09182954 -0.6858142
000090 2b 58 22 3e 25 c6 19 be 9e 41 45 3d 39 51 f1 bd
       0.15853946 -0.15016992 0.04815828 -0.1178307
0000a0 87 7b a4 3d 0c 6b 24 3e 38 ca 6a 3d 2d 01 45 3d
       0.080313735 0.1605646 0.057321757 0.048096824
0000b0 2a 03 0d 3e fb 48 9a 3c 00 fe f6 3c bc 09 3e be
       0.13770738 0.018833628 0.030150414 -0.18558401
0000c0 e3 4f 50 bd 1f ad 96 bd 21 2e b1 be 8d 9c 86 3d
       -0.050857436 -0.07357239 -0.34605506 0.065728284
0000d0 ec 0b db 3c 1a 3b 15 be 71 d0 fe be 99 7f bd bd
       0.026739083 -0.14573327 -0.49768403 -0.09252853
0000e0 c0 2b 99 3d 8d 61 9d 3d ec 9f 6e bd fd dd c5 bd
       0.07479048 0.07684622 -0.058257982 -0.096614815
0000f0 8a e0 eb bd 27 e6 10 be 4f f4 53 3d 0f 29 30 3d
       -0.11517437 -0.14150296 0.051746663 0.043007907
000100 7e 21 d7 bd a0 39 27 3d 86 ff 1c 3d c3 95 f8 3d
       -0.10504435 0.04082644 0.038329624 0.1213794
000110 7b fb 1c 3e b0 af fc 3d 69 64 17 3d f8 3d f0 3d
       0.15330307 0.12338197 0.036960993 0.117305696
000120 47 29 ac bd 6c 9d 08 3e a5 e9 dc bd 14 ec b7 bd
       -0.084063105 0.13341302 -0.10786752 -0.08980575
000130 6e 1a 29 be ab b7 c3 bd 39 d1 11 3d be 9e ee bd
       -0.16513988 -0.09556516 0.03559992 -0.116513714
000140 9e f6 86 be a0 8b 10 3e d2 ba 62 be 08 c9 3b 3d
       -0.2636003 0.14115763 -0.22141579 0.045846015
000150 2f 2f 82 3d 0c f9 0a be 10 68 12 3d 94 81 87 be
       0.06356656 -0.13571566 0.035743773 -0.26466048
000160 59 1e 28 bf 1d bf 3c be 69 0e 4e 3e 13 6f 6b 3d
       -0.65671307 -0.18432279 0.20122685 0.057478976
000170 86 aa e0 be f6 75 e8 be e3 19 cc bd 63 02 76 3d
       -0.438801 -0.45402497 -0.09965875 0.06006087
000180 4d af 90 3d 47 1b c3 bd 4c 6b 2f 3d 60 a6 f3 3d
       0.07064686 -0.09526687 0.042826936 0.11896968
000190 8d 20 53 3d 53 f5 30 be 52 0d b4 3d 03 b3 9d 3d
       0.051544715 -0.17281084 0.08791603 0.077001594
0001a0 74 ab 58 3d 59 b3 a6 bd de e5 9c bd e1 c4 77 3d
       0.052897885 -0.081396766 -0.07661031 0.060490493
0001b0 73 a8 7f 3d 88 03 f9 bd de fa c4 be a4 36 a1 bd
       0.062416505 -0.12158877 -0.38472646 -0.0787175
0001c0 8b 26 b2 be aa ee 59 3e c8 a1 76 3d 04 0b 3d 3d
       -0.3479503 0.2128245 0.06021288 0.046153083
0001d0 a6 12 2b be f1 50 6d 3d 79 f9 ae be 4e d2 8f 3d
       -0.16706333 0.05793852 -0.34174708 0.07022534
0001e0 85 b8 f0 bd 54 11 a3 bd 32 2e 2d 3e 4e 40 ae bd
       -0.11753944 -0.079622895 0.16912153 -0.08508359
0001f0 9b 54 3d be b9 82 37 3d 3f bf 9b be 07 9f 52 be
       -0.18489306 0.0448024 -0.30419347 -0.20568477
