Test.pt (torch, 742619 bytes, 4 tensors)

embedding.weight f4 [5396, 32]
0	0xbe97721e	-0.29579252
1	0xbffea238	-1.9893255
2	0x405f091c	3.484931
3	0x3f8842d6	1.0645397
4	0xbf83b70e	-1.0290239
5	0xc00ca04e	-2.1972842
6	0x400bf4ad	2.1868088
7	0xbfc7624a	-1.557687
8	0x3f98c093	1.1933769
9	0x3f09f5d9	0.5389076
10	0xbeabdbc5	-0.33566108
11	0xbf523f10	-0.82127476
12	0x40339cde	2.8064494
13	0xc0233280	-2.5499573
14	0x4092411f	4.5704494
15	0x3f5dd694	0.86655545
16	0x4096460c	4.6960506
17	0x3f6ad9e5	0.9173873
18	0xc0351cd2	-2.829884
19	0xc04f0c75	-3.2351353
20	0xc0244c6a	-2.567164
21	0xc08a9484	-4.3306293
22	0xbf867eac	-1.0507407
23	0x3f065177	0.52468055
24	0xbf0c6cc9	-0.5485349
25	0xbedcf3c2	-0.43154722
26	0x404a9431	3.165295
27	0x408d5281	4.4163213
28	0x404d702f	3.2099721
29	0xc087a8df	-4.239364
30	0xbf70bc46	-0.9403728
31	0xc0974b91	-4.7279744
32	0xbe015cb1	-0.12633015
33	0x3f84b9d4	1.036921
34	0xbea4c64c	-0.32182539
35	0x3f1cb4e0	0.61213493
36	0xbfca3541	-1.5797502
37	0xbfe94368	-1.8223696
38	0x3f96813e	1.1758192
39	0xbf14014c	-0.5781448
40	0x3cce7be7	0.025205566
41	0x407d4e56	3.9579062
42	0x404df6be	3.218185
43	0xc0340961	-2.8130724
44	0x3fa06509	1.2530833
45	0xc0971753	-4.721597
46	0x40239d0a	2.55646
47	0x4027f95d	2.624595
48	0x406d7049	3.7099783
49	0x3fb41053	1.4067482
50	0x403ed801	2.9819338
51	0x400b0e9b	2.1727664
52	0xc029de3c	-2.654189
53	0xc0b63245	-5.6936364
54	0x3c3ee876	0.011652103
55	0x3fa5f543	1.2965473
56	0x40698209	3.6485617
57	0x3fb06302	1.3780215
58	0x3fccbbe6	1.5994842
59	0x4046b3d3	3.1047256
60	0x40d12c7d	6.5366807
61	0xbff14e01	-1.885193
62	0x3faed0cc	1.365747
63	0xc0a0f3aa	-5.029744
64	0x3f81342d	1.0094048
65	0xbeda50e9	-0.42639855
66	0xbf4bd1c8	-0.79616976
67	0x40081a1a	2.126593
68	0xc04f340d	-3.237552
69	0xbfbc3fe7	-1.4707001
70	0x404755a5	3.1146023
71	0xbf72d10b	-0.94850224
72	0x3fb24047	1.3925866
73	0x408f8df5	4.4860787
74	0x400094ed	2.0090897
75	0xc02c2a87	-2.6900957
76	0x3f0abad1	0.5419131
77	0xc032934a	-2.7902398
78	0x3ff52a17	1.915347
79	0x3f30fb52	0.69133484
80	0x409d232a	4.9105425
81	0x400a438b	2.1603725
82	0xbdfc92d3	-0.12332692
83	0x400bee96	2.1864371
84	0xc0298410	-2.6486855
85	0xc0f60b2a	-7.688863
86	0xbf49abd9	-0.78777844
87	0x40071257	2.1104944
88	0x404c494c	3.1919737
89	0x3eeb00dc	0.45899093
90	0x4056fbdf	3.359123
91	0x40195470	2.3957787
92	0x40a8020b	5.2502494
93	0xbff26a63	-1.8938717
94	0x3fb76d72	1.4330275
95	0xc0c6c4f9	-6.2115445
96	0x40b21c1d	5.565932
97	0xc00d52f8	-2.208189
98	0x401f4031	2.488293
99	0xc0042853	-2.0649612
100	0xc0a86608	-5.262455
101	0xc11fb2f6	-9.981192
102	0x3f83b49d	1.0289494
103	0x3f8fcb20	1.1233864
104	0x3fbcc5aa	1.4747822
105	0xbfb715c1	-1.4303514
106	0x40048189	2.0704062
107	0xc07561e9	-3.834101
108	0x40aab888	5.335026
109	0x3e778c52	0.24174622
110	0x406fb22b	3.7452495
111	0x401f6326	2.4904265
112	0xbead8757	-0.3389232
113	0xbf17b69b	-0.5926301
114	0x3fd2a2c4	1.6455922
115	0xc0043d42	-2.0662389
116	0xbfbfb795	-1.49779
117	0x3f85ef1f	1.0463599
118	0x3f86354b	1.0485014
119	0xbf7d468b	-0.98935765
120	0xc01d0b30	-2.4538078
121	0xc025783a	-2.585463
122	0xc0079e7c	-2.119048
123	0x3f794cfe	0.97383106
124	0x3dc3fd47	0.09569793
125	0x3ee778dc	0.45209396
126	0xbfa90ee5	-1.320767
127	0xc0271cb5	-2.6111271
128	0x40159727	2.3373506
129	0xc08f66f4	-4.4813175
130	0x410eb1e4	8.91843
131	0xc00dd35e	-2.2160258
132	0x3f7ca1a5	0.9868415
133	0xc056b9dd	-3.3550942
134	0x3ea3b768	0.31975865
135	0xbf2fe77d	-0.687126
136	0x409b7799	4.8583493
137	0xc063981f	-3.5561597
138	0x3f04f679	0.5193859
139	0xc0070f53	-2.1103103
140	0x409835e8	4.7565804
141	0xbf365f3b	-0.7123906
142	0x40aa6b55	5.325602
143	0xbf22b926	-0.63563764
144	0x40cb9b49	6.3627057
145	0xbf3a6f95	-0.7282651
146	0xbe73b232	-0.23798445
147	0xbf39be74	-0.72556233
148	0x4080f7ca	4.0302477
149	0x4055c6c1	3.340256
150	0x40a5fac3	5.1868606
151	0xc0968807	-4.704105
152	0xc0657615	-3.5853322
153	0x3f4d87bf	0.8028526
154	0xbffd1ade	-1.9773824
155	0x406a7eb6	3.6639838
156	0xc03bdd8d	-2.9353974
157	0xc03574b5	-2.8352482
158	0xbfd5f1c4	-1.6714406
159	0x4005fc42	2.0935216
160	0xc0405d31	-3.005688
161	0xc0dcb42d	-6.896994
162	0x40a6ffb7	5.218715
163	0xc03ef348	-2.9835987
164	0x40ff227f	7.972961
165	0xc071e300	-3.77948
166	0x403de467	2.9670656
167	0xc09d1cf2	-4.9097834
168	0x40b2316f	5.5685344
169	0x40846ae3	4.1380477
170	0x4080533e	4.0101614
171	0xbf1d612d	-0.61476403
172	0x404fdbee	3.2477984
173	0x40a5caaf	5.1809916
174	0x3ec109d8	0.37702823
175	0x404b3e08	3.175661
176	0xbf1a272d	-0.6021603
177	0x3fb30953	1.398722
178	0xc05afcb6	-3.4216743
179	0x3f705aed	0.9388874
180	0xbf236237	-0.6382174
181	0xbfd2d4da	-1.6471207
182	0x3fd31584	1.6490941
183	0x40a0bc04	5.022951
184	0xbf6cfc5a	-0.9257256
185	0x40d390cf	6.611427
186	0xbdc43131	-0.09579695
187	0xc0cae898	-6.340893
188	0x4071a2aa	3.7755532
189	0x40914ec4	4.540865
190	0x40059c09	2.0876486
191	0x3fdca581	1.7238008
192	0xbf4b551f	-0.7942676
193	0xc0cfd54f	-6.4947886
194	0x40d441f6	6.633052
195	0x4046bd47	3.1053026
196	0x40b18668	5.547657
197	0xc047403d	-3.1132958
198	0xbf807a44	-1.0037313
199	0xc0dc4fbf	-6.8847346
200	0xc0e76986	-7.2316313
201	0x4012d5ba	2.2942948
202	0xc13bde66	-11.7417965
203	0x3f62ce25	0.885958
204	0x3fbe46dc	1.4865375
205	0x403baa7b	2.9322803
206	0x3f2b21a5	0.6684821
207	0x40787dcb	3.8826778
208	0x3f80cf92	1.0063345
209	0x404a1ef1	3.1581385
210	0x406037fd	3.5034173
211	0xc0c1ee58	-6.0603447
212	0x3f9cd089	1.225114
213	0xbe4afda7	-0.19823323
214	0x40f7aa45	7.739535
215	0xc01621e9	-2.3458197
216	0x3fadbb72	1.3572829
217	0x409f4d28	4.9781685
218	0x401aa059	2.4160368
219	0xbfa5358e	-1.2906969
220	0xbfdbebf1	-1.7181379
221	0x3faec219	1.3652984
222	0x40b6791a	5.702283
223	0x3fdd5627	1.7291917
224	0xc07248cf	-3.785694
225	0xc0a296c0	-5.080902
226	0x40dc1d13	6.878549
227	0x3ff03ed9	1.876918
228	0x3fac46dd	1.3459126
229	0xc088969b	-4.2683845
230	0x3ebd3e36	0.36961526
231	0xc0d7770a	-6.733281
232	0xc00f59b0	-2.239849
233	0x3fa450ac	1.2837119
234	0xbe95d1c4	-0.292616
235	0x3eeb0032	0.45898587
236	0x4081d418	4.0571404
237	0x3e0fe71d	0.14053006
238	0x40447205	3.0694592
239	0x401f1315	2.4855397
240	0x40ae1c84	5.440981
241	0x40164fde	2.3486247
242	0xc10bdd9c	-8.741604
243	0xc0ef25c4	-7.47336
244	0x3f79ad67	0.97530216
245	0x3f597145	0.8493846
246	0x3f921ed1	1.1415654
247	0xc01eb803	-2.4799812
248	0x3ff5b43a	1.9195626
249	0x3f164660	0.58701134
250	0x3dabfc7f	0.08397769
251	0xc0b0858a	-5.516301
252	0xc0c09368	-6.017994
253	0xc0928090	-4.5781937
254	0x40dc5d42	6.886384
255	0x40b4338c	5.6312923

CNN.0.weight f4 [128, 32, 3]
0	0xbb731a33	-0.0037094473
1	0x3dc01419	0.09378833
2	0xbcf894a4	-0.030344315
3	0x3d438cca	0.04774169
4	0xbd2eb5bf	-0.042653795
5	0x3dc156e9	0.09440405
6	0xbda72b4d	-0.08162556
7	0xbdccb103	-0.099947
8	0x3d3e1547	0.04640701
9	0x3dc0aea1	0.09408308
10	0x3dc3a513	0.0955297
11	0x3c1ea9a9	0.009684005
12	0x3dc49ede	0.09600614
13	0xbd36cff9	-0.044631932
14	0x3c94a185	0.018143425
15	0x3db2208d	0.08697615
16	0x3d806089	0.062684126
17	0x3d4411b5	0.04786845
18	0x3d3ce482	0.04611636
19	0xbdcabf3e	-0.09899758
20	0x3c54ebf1	0.012995706
21	0xbdb3c663	-0.08778074
22	0xbdaa24b4	-0.08307782
23	0xbc25871c	-0.010103013
24	0x3dabbf89	0.08386142
25	0x3d21c99c	0.03949891
26	0xbbc3bbe9	-0.0059733284
27	0xbc72ba40	-0.014814913
28	0x3d6d0a47	0.05787113
29	0x3d87eb26	0.06636648
30	0x3be8c403	0.0071034445
31	0x3d11c7c3	0.0355909
32	0xbd45fe9e	-0.048338525
33	0xbd8fe209	-0.07025535
34	0x3d051c06	0.03249743
35	0xbd2dea1e	-0.0424596
36	0x3dad885c	0.08473274
37	0xbdb0101e	-0.08596824
38	0x3c0e8a90	0.008700028
39	0x3c9c94fb	0.019114008
40	0x3c3fe4d2	0.01171227
41	0x3c6cf9f2	0.0144638885
42	0x3db1aa4e	0.08675061
43	0x3d747707	0.059683826
44	0xbd77b0e1	-0.06047142
45	0x3c6a49eb	0.01429985
46	0x3db19c1d	0.08672354
47	0xbca482fa	-0.020081986
48	0xbc617a80	-0.013762116
49	0xba461513	-0.0007556241
50	0x3d1f8903	0.038949024
51	0xbb971af3	-0.004611367
52	0xbdbe6d12	-0.09298147
53	0x3dade9e9	0.084918804
54	0x3d03b999	0.03215942
55	0xbdb2e0fe	-0.0873432
56	0xbdc16460	-0.09442973
57	0x3bbe0c74	0.0057998244
58	0x3ca514f5	0.020151595
59	0x3dc3c46c	0.09558949
60	0xbd5f6735	-0.054541785
61	0xbdca464c	-0.09876689
62	0x3bb0767e	0.005385219
63	0xbdbfce1c	-0.09365484
64	0xbc2434b8	-0.010022335
65	0x3dc05e67	0.09393006
66	0xbcdcf040	-0.026970029
67	0xbc4ccc46	-0.012499874
68	0x3dc587c9	0.096450396
69	0xbc5c8112	-0.013458507
70	0xbd9bff94	-0.07617107
71	0x3bef1a22	0.0072968164
72	0x3d18644e	0.037205033
73	0x3dc065b9	0.09394402
74	0xbd9b44a5	-0.07581452
75	0xbd8a1d47	-0.067438655
76	0x3dc81323	0.09769275
77	0x3d90dbf2	0.07073201
78	0x3d732a55	0.059366543
79	0x3d604815	0.054756243
80	0xbdbf0c70	-0.09328544
81	0x3dc36c96	0.095421955
82	0xbd07bf3c	-0.03314136
83	0xbdb82ec3	-0.08993294
84	0x3d744721	0.059638146
85	0xbdc9adf2	-0.098476306
86	0x3d9b888d	0.07594404
87	0xbc00487f	-0.007829784
88	0xbd9b98ba	-0.0759749
89	0x3d74e9e3	0.059793364
90	0x3dac62d4	0.084172875
91	0x3d47ba97	0.04876193
92	0xbd52e7c3	-0.051490556
93	0x3d0abb15	0.03386982
94	0x3d078823	0.033088814
95	0xbc9ccc66	-0.019140434
96	0xbbad1f0f	-0.0052832435
97	0xbc25e2b8	-0.010124855
98	0x3daa3aa6	0.083119676
99	0xbdbee666	-0.09321289
100	0xbbe7e679	-0.007077035
101	0xbd88e80a	-0.06684883
102	0x3db49029	0.08816559
103	0x3d32dd88	0.0436683
104	0xbc58888e	-0.013216151
105	0x3d7403cc	0.059573933
106	0x3b5dcbb5	0.0033843343
107	0x3dbb94bf	0.091592304
108	0x3d99c303	0.07507899
109	0xbd727e2d	-0.05920236
110	0x3db936cb	0.09043654
111	0xbd22edac	-0.039777443
112	0x3d9d922e	0.07693897
113	0xbd615b7a	-0.05501888
114	0x3c993678	0.01870273
115	0xbdcb001a	-0.09912129
116	0x3c6e750a	0.0145542715
117	0x3db2710a	0.08712967
118	0xbd68f641	-0.05687547
119	0xbd0927b4	-0.03348513
120	0x3d546822	0.05185712
121	0xbda70a03	-0.081562065
122	0xbd99e9fc	-0.07515332
123	0x3d9b959c	0.07596895
124	0x3da2a896	0.079423115
125	0xbd8af18d	-0.067843534
126	0x3d4d69d0	0.05014974
127	0x3b0bc74c	0.0021328507
128	0x3cde938f	0.02716997
129	0x3b929130	0.004472874
130	0xbcf0cb77	-0.029393895
131	0xbd221907	-0.03957465
132	0x3b294863	0.00258305
133	0xbd526ab9	-0.05137131
134	0x3c1fc74c	0.009752106
135	0x3dcea56a	0.10090144
136	0xbd9bd87a	-0.07609649
137	0x3d56c165	0.05243053
138	0xbd82ba4c	-0.063831896
139	0x3cb9ecb6	0.02269588
140	0xbd29e1ff	-0.041475292
141	0xbd9ce764	-0.07661322
142	0x3c14dba7	0.009085572
143	0x3d07b851	0.033134762
144	0x3d1b3c0f	0.037899073
145	0xbcd777a3	-0.026302164
146	0xbd79a661	-0.060949687
147	0xbb1d7e8a	-0.0024031722
148	0xbd6f4731	-0.058417503
149	0x3db64c46	0.08901267
150	0x3b4be423	0.0031111322
151	0xbda3dcb1	-0.08001078
152	0x3d5b6e49	0.053571973
153	0xbc8302d1	-0.015992554
154	0xbc5a840c	-0.0133371465
155	0x3d9881ab	0.07446607
156	0xbd9238a5	-0.0713971
157	0xbd88af92	-0.066741124
158	0xbdb859de	-0.09001516
159	0x3dc1d6cd	0.09464798
160	0xbbdd100c	-0.0067462977
161	0xbd46f6fa	-0.04857538
162	0xbc089b8e	-0.008337868
163	0x3d87b392	0.06626047
164	0x3c0da8c3	0.008646193
165	0x3db1f057	0.08688419
166	0xbd84ce49	-0.06484658
167	0x3d25189e	0.04030668
168	0xbd1d055f	-0.0383352
169	0xbd3f5de4	-0.0467204
170	0x3d032ef2	0.032027192
171	0x3dbbfdda	0.09179278
172	0x3db44861	0.08802868
173	0x3dbba350	0.09162009
174	0xbd81952a	-0.06327279
175	0xbd4cf77d	-0.05004071
176	0x3cf7cf65	0.03025026
177	0xbd2a8027	-0.04162612
178	0xbda3eceb	-0.08004173
179	0x3ca67e52	0.020323906
180	0xbdc9674e	-0.09834157
181	0x3d0d1d02	0.034451492
182	0xbc2fecc0	-0.010737598
183	0x3d13db39	0.03609774
184	0x3d07a631	0.033117477
185	0x3d31fd34	0.043454364
186	0x3d397262	0.0452751
187	0xbc0818c1	-0.008306683
188	0xbcf2cd99	-0.029639052
189	0xbcd2663a	-0.025683511
190	0xbd93581c	-0.0719454
191	0xbd99eb4d	-0.07515583
192	0x3c857e00	0.016295433
193	0xbd281880	-0.04103899
194	0xbcbba0a5	-0.02290375
195	0x3d82e926	0.06392126
196	0x3cab906b	0.020942887
197	0xbcdc765d	-0.026911909
198	0xbda4cf63	-0.080473684
199	0xbb29a5d3	-0.0025886192
200	0x3c1b8b0c	0.009493601
201	0x3dd055d7	0.10172623
202	0xbd9d234c	-0.07672748
203	0x3d94a165	0.07257346
204	0xbdbb21d5	-0.09137312
205	0xbdc8a712	-0.09797491
206	0xbca3ce6d	-0.019995892
207	0xbd887753	-0.06663384
208	0x3d7566c6	0.059912466
209	0x3d683362	0.056689627
210	0x3c1cf8e6	0.009580826
211	0xbd9ab7f6	-0.07554619
212	0xbc11916d	-0.00888477
213	0x3bbcce39	0.0057618883
214	0x3d703470	0.05864376
215	0x3d87b216	0.06625764
216	0xbd8168de	-0.0631883
217	0xbc5443eb	-0.012955646
218	0x3b104b0b	0.0022017385
219	0xbda0942a	-0.0784076
220	0xbd11cc05	-0.03559496
221	0x3b2e8f50	0.0026635714
222	0x3c0d4166	0.008621549
223	0x3c0f935a	0.008763159
224	0xbd7ca04a	-0.0616763
225	0x3cddfa3c	0.02709686
226	0xbd85692d	-0.06514201
227	0xbd882b83	-0.06648924
228	0xbd238775	-0.039924104
229	0x3d15e393	0.036593985
230	0xbdaeea93	-0.08540835
231	0x3c806f2e	0.015678015
232	0x3cfa38e2	0.030544702
233	0xbcb8d6ee	-0.022563424
234	0x3d9fc46f	0.078011386
235	0x3cfacde6	0.030615758
236	0xbdb35b77	-0.0875768
237	0x3d4394f3	0.04774947
238	0xbd8a07b6	-0.06739752
239	0x3d55b9c6	0.05217912
240	0xbd350eef	-0.044203695
241	0xbc18cb68	-0.00932584
242	0xbcd88a23	-0.026433056
243	0xbda5972c	-0.08085474
244	0xbd2e6acc	-0.04258232
245	0xbd8bfe16	-0.068355724
246	0xbba6601a	-0.005077374
247	0xbc96d1a6	-0.018410515
248	0x3a479abf	0.00076143065
249	0xbc8d35f0	-0.017237633
250	0xbae05ce2	-0.0017117525
251	0xb9fe9127	-0.00048554802
252	0xbd8236e1	-0.063581236
253	0xbdb77f40	-0.08959818
254	0x3cdf6e2b	0.027274212
255	0xbc6ffa5b	-0.014647092

CNN.0.bias f4 [128]
0	0x3cda54e3	0.026651805
1	0x3d050379	0.032474015
2	0x3cb6d399	0.022317695
3	0x3da01d0c	0.0781804
4	0xbd03d953	-0.03218968
5	0xbc99c725	-0.018771717
6	0x3d70e7c1	0.058814768
7	0xbd0e5f10	-0.034758627
8	0x3bce3cbd	0.0062938617
9	0x3d18db0d	0.037318278
10	0xbdae4031	-0.08508337
11	0xbd64e1de	-0.055879466
12	0xbd8f44b5	-0.06995527
13	0xbd21f668	-0.039541632
14	0xbdc69d93	-0.09698024
15	0xbc457d44	-0.012053791
16	0x3c81ec9a	0.01585989
17	0x3c923a62	0.017850105
18	0xbd98496d	-0.0743588
19	0x3da27ee0	0.07934356
20	0x3ca7eb84	0.020498045
21	0xbd804dcc	-0.062648386
22	0x3dbbaeed	0.09164224
23	0x3c37b483	0.011212471
24	0x3b5accaf	0.003338616
25	0xbdab36d1	-0.08360065
26	0xbd188a43	-0.03724123
27	0x3d80fa7c	0.06297776
28	0xbd34d4f0	-0.044148386
29	0xbd96ffc0	-0.07372999
30	0x3da2243c	0.079170674
31	0xbd811a7e	-0.06303881
32	0x3ca39a67	0.019971086
33	0x3dbfc4b3	0.09363689
34	0x3c7f1ca5	0.015570794
35	0xbd9b0db6	-0.075709745
36	0xbcba3140	-0.022728562
37	0x3c7931b2	0.015209602
38	0x3ce1dcce	0.027571108
39	0xbc1bf7ed	-0.009519559
40	0x3d0c43b1	0.034244243
41	0x3c671a86	0.014105445
42	0xbc043a43	-0.008070531
43	0xbd2c50bd	-0.042069186
44	0x3dbc7286	0.09201531
45	0xbdb87856	-0.09007327
46	0xbbc4425e	-0.005989357
47	0xbd792ccb	-0.060833734
48	0xbc4c4cfb	-0.012469525
49	0x3c887922	0.016659323
50	0xbd8e2143	-0.06939938
51	0x3d2f820c	0.04284863
52	0xbdbd406e	-0.092408046
53	0x3d8427f4	0.06452933
54	0x3c8df204	0.017327316
55	0x3d0b5356	0.034015022
56	0x3cf5ce85	0.030005703
57	0xbda98e10	-0.082790494
58	0xbd0efc8b	-0.034908812
59	0xbd6b40b3	-0.05743475
60	0xbd2c8207	-0.04211619
61	0xbda82ffd	-0.08212278
62	0xba9ed76c	-0.0012118644
63	0x3d854db7	0.065089636
64	0x3d80e533	0.06293716
65	0x3d8936f2	0.06699933
66	0x3db926cd	0.09040604
67	0x3d073d52	0.033017464
68	0x3dc6142a	0.09671815
69	0xbc89287f	-0.016742943
70	0x3ce266fa	0.027636994
71	0xbda8747b	-0.08225342
72	0x3cbf844c	0.023378514
73	0x3db43717	0.0879957
74	0x3c372bb7	0.011179856
75	0x3c2e6290	0.010643616
76	0xbdc370d0	-0.09543002
77	0x3d7d3e44	0.06182696
78	0x3dad5df7	0.08465188
79	0x3dbab9ab	0.091174446
80	0xbc386928	-0.01125554
81	0xbd8b68c6	-0.06807093
82	0x3da527e7	0.080642514
83	0x3c71d8f3	0.014761197
84	0xbd0d6f54	-0.03453
85	0x3d812b8d	0.06307135
86	0xbd888411	-0.06665815
87	0x3d13dce4	0.03609933
88	0x3cc769ff	0.024342535
89	0x3ca43c16	0.020048182
90	0xbcff70f3	-0.031181788
91	0x3d60e94d	0.054909993
92	0x3d16a70e	0.03678041
93	0xbd7fb5f6	-0.06242939
94	0xbcd05e8e	-0.025435712
95	0xbd926154	-0.0714747
96	0xbd6acf92	-0.05732686
97	0x3da4cf80	0.0804739
98	0x3c8e3b25	0.017362187
99	0xbd74e018	-0.059784025
100	0x3d9b1deb	0.07574066
101	0xbdc85272	-0.0978135
102	0x3d702f01	0.058638576
103	0xbd692cea	-0.0569276
104	0x3b83877f	0.004013955
105	0x3d73b502	0.059498794
106	0x3c0f65cc	0.008752298
107	0xbdc9128e	-0.09817992
108	0x3da866cf	0.08222734
109	0x3caf2a93	0.021382606
110	0xbc57bfd5	-0.013168295
111	0x3d559b71	0.052150194
112	0xbd8082d9	-0.06274957
113	0x3dc3a091	0.0955211
114	0x3dcb054a	0.09913118
115	0x3c99c81d	0.01877218
116	0xbd78e16e	-0.06076186
117	0x3d9baf86	0.07601838
118	0xbc9d6b3e	-0.019216176
119	0xbc94c3eb	-0.018159827
120	0x3d91da8f	0.07121765
121	0x3d91d3b2	0.07120456
122	0x3d2a0300	0.041506767
123	0x3d4e0868	0.050300986
124	0xbc20c69a	-0.009812975
125	0xbcfcc711	-0.030856641
126	0xbcfd359d	-0.030909354
127	0xbd61ce85	-0.055128593

fc.weight f4 [1, 128]
0	0xbd015399	-0.031573866
1	0xbd608c7a	-0.05482147
2	0xbd9dbc7a	-0.07701965
3	0x3c755f34	0.0149763115
4	0x3c32a8ef	0.010904535
5	0xbda0a473	-0.07843866
6	0x3c19e13a	0.009392077
7	0xbda97f33	-0.082762145
8	0x3c0601bd	0.008179125
9	0x3bc202b1	0.005920731
10	0x3d0a16b5	0.03371306
11	0x3d6e04bc	0.058109984
12	0x3dabe57a	0.083933786
13	0x3d956dff	0.07296371
14	0x3d6758d0	0.056481183
15	0xbcf2f2fc	-0.02965688
16	0xbd084d55	-0.033276875
17	0xbc2dc91f	-0.010607033
18	0xbd5a0771	-0.053229753
19	0xbd0063c2	-0.031345136
20	0xbd49b636	-0.049246036
21	0x3d4447c4	0.047920004
22	0xbca94506	-0.020662796
23	0x3d65dc1a	0.05611811
24	0xbda1170c	-0.07865724
25	0x3d534aac	0.051584885
26	0x3c81afeb	0.015830955
27	0xbd865540	-0.06559229
28	0xbda4f750	-0.080549836
29	0xbd8b21ed	-0.0679358
30	0x3bd428bb	0.006474582
31	0xbd96fae0	-0.07372069
32	0x3b2db39a	0.0026504756
33	0xbd2ed5b3	-0.04268427
34	0xbcb1e2d7	-0.021714611
35	0xbcd8e150	-0.026474625
36	0x3c4b9db7	0.012427739
37	0xbd4b026b	-0.049562853
38	0x3cdd0b2a	0.026982863
39	0xbc89fbc3	-0.016843682
40	0xbdab2cb6	-0.08358137
41	0x3c5c285f	0.01343736
42	0xbd56eb1c	-0.05247031
43	0xbccc8164	-0.024964042
44	0x3aa90a93	0.0012896828
45	0xbc74aaf9	-0.014933341
46	0xbc5736da	-0.013135636
47	0x3d7adb7c	0.061244473
48	0xbd2fa676	-0.04288336
49	0xbd81fe39	-0.06347317
50	0xbd2294b7	-0.039692607
51	0xbd1abef5	-0.037779767
52	0xbc95def4	-0.018294789
53	0xbcccf5ce	-0.025019553
54	0x3d992874	0.07478419
55	0x3d156765	0.036475558
56	0x3d83d026	0.064361855
57	0x3dab403e	0.083618626
58	0xbd74de70	-0.059782445
59	0xbcd4eef4	-0.025992848
60	0xbca56791	-0.020190986
61	0x3d87c787	0.06629854
62	0x3daa01f3	0.08301153
63	0x3c68e418	0.014214538
64	0xbb71736b	-0.0036842476
65	0x3c90b12e	0.01766261
66	0x3b6ed211	0.0036441127
67	0xbd772d0c	-0.060345694
68	0x3bd6eb75	0.0065588304
69	0x3d02398b	0.03179316
70	0xbd1f2386	-0.038852237
71	0x3cadab1f	0.021199761
72	0x3db27dcf	0.08715402
73	0x3cdf9cd3	0.02729646
74	0xbd52c621	-0.05145848
75	0xbd9bd3b4	-0.076087385
76	0x3d5b39bf	0.053521868
77	0xbd057c88	-0.032589465
78	0xbcda57cf	-0.026653199
79	0xbd805d40	-0.06267786
80	0xbbd50e1b	-0.0065019256
81	0xbd8ec55e	-0.069712386
82	0x3d02dba7	0.031947758
83	0x3d78c4f0	0.06073469
84	0x3d716cbf	0.0589416
85	0xbda18733	-0.07887115
86	0xb98f5bcd	-0.00027343482
87	0xbd9651f7	-0.07339852
88	0xbd9a628d	-0.07538328
89	0xbda847b5	-0.08216802
90	0xbc128f26	-0.008945262
91	0xbaff209b	-0.0019464673
92	0xbd96dc3a	-0.07366224
93	0xbd68ee7c	-0.05686806
94	0x3da9133b	0.08255621
95	0x3daf9197	0.08572691
96	0xbda8802e	-0.08227573
97	0xbdad177e	-0.084517464
98	0xbd3a7116	-0.045518003
99	0x3c75f5f9	0.015012258
100	0x3d091fb2	0.033477493
101	0x3d4291ad	0.04750221
102	0xbd18f4f0	-0.037342966
103	0xbcfcd256	-0.030862015
104	0xbd2df2b3	-0.042467784
105	0x3b902d98	0.0043999664
106	0xbd679076	-0.056534253
107	0xbd90c8ff	-0.07069587
108	0xbd7e8e6e	-0.06214755
109	0xbd8729d5	-0.06599776
110	0xbdaa65ef	-0.083202235
111	0x3b9f6658	0.0048644952
112	0x3daeaa8e	0.085286245
113	0xbcd78203	-0.026307112
114	0x3d73f73c	0.059561953
115	0x3d9b969b	0.07597085
116	0x3d86cc03	0.06581881
117	0x3d040195	0.03222807
118	0xbcbcfda4	-0.023070164
119	0x3dab9dba	0.08379693
120	0x3cc34b46	0.023839604
121	0x3d300340	0.04297185
122	0x3d2e9a17	0.04262742
123	0x3c94e938	0.018177614
124	0x3d8371f4	0.06418219
125	0x3cb45568	0.022013381
126	0xbd6d1742	-0.05788351
127	0x3d84950c	0.06473741
